learning/metamorphic/net_paras2.pkl (torch_old, 874 bytes, 4 tensors)

hidden.weight f4 [3, 2]
0	0xbf240ea2	-0.6408483
1	0xbe9f4203	-0.3110505
2	0x3f7b0ae6	0.98063505
3	0xbe711f6e	-0.23547146
4	0xbecb9074	-0.39758646
5	0xbf0dfa8e	-0.5546044

hidden.bias f4 [3]
0	0xbee67140	-0.45008278
1	0xbea3a568	-0.31962132
2	0x3ee1f398	0.4413116

out.weight f4 [2, 3]
0	0x3e0b4047	0.13598739
1	0x3ee7fd08	0.45310235
2	0x3c4b07ba	0.012391979
3	0x3f4aaee4	0.7917311
4	0xbf0562d6	-0.52103937
5	0x3f53d87b	0.827522

out.bias f4 [2]
0	0xbdae2b32	-0.085043326
1	0xbf09b7cd	-0.5379608
