learning/net_paras.pkl (torch_old, 874 bytes, 4 tensors)

hidden.weight f4 [3, 2]
00000000: 00f4 3f3f d10c da3e 1aae e63e 116d f6bd
00000010: cdec 55bc 518d b4be
0.7498169 0.42587903 0.45054704 -0.120325215 -0.013056946 -0.35264066

hidden.bias f4 [3]
00000000: 244b 973e 5416 ccba e262 3a3e
0.29549515 -0.0015570619 0.18201783

out.weight f4 [2, 3]
00000000: f13e 363f fcb8 693e d406 163e 1669 05bf
00000010: ce33 ebbe 3eda 963e
0.7118979 0.22824472 0.14651042 -0.52113473 -0.4593796 0.2946338

out.bias f4 [2]
00000000: 4ded a8be 5684 1e3f
-0.32993546 0.6192068
