learning/net_params2.pkl (torch_old, 906 bytes, 3 tensors)

0.weight f4 [10, 1]
00000000: 7073 bebd 48ea c5bd 0eea 3cbf c09e 383e
00000010: da53 f93e 3c89 493e 1bb2 d8be d032 65be
00000020: c5e8 39be 6890 563e
-0.09299362 -0.09663826 -0.7379464 0.18029308 0.48696786 0.19681257 -0.42323384 -0.22382665
-0.18155201 0.20953524

0.bias f4 [10]
00000000: 082a 94bf 6447 b0be c6a4 76bf c0aa 31bf
00000010: f7ac 02bf b640 b6bf bc12 5abf a648 0bbf
00000020: e890 b3be e747 53bf
-1.1575327 -0.34429467 -0.96345174 -0.6940117 -0.51045173 -1.4238498 -0.85184836 -0.5440773
-0.35071492 -0.8253159

2.weight f4 [1, 10]
00000000: dcdc 483f c226 9d3e 6847 723d 00f2 05bb
00000010: c877 db3d 06f2 ac3e fc4f 433e 0048 fbba
00000020: 3d61 473e 48d1 fe3e
0.78462005 0.30693632 0.05915013 -0.0020438433 0.10716206 0.337784 0.1907348 -0.0019171238
0.19470687 0.49769044
